_________________________________________________________________
Layer (type)                 Output Shape              Param #   
=================================================================
flatten_1 (Flatten)          (None, 4096)              0         
_________________________________________________________________
dense_1 (Dense)              (None, 256)               1048832   
_________________________________________________________________
activation_95 (Activation)   (None, 256)               0         
_________________________________________________________________
dense_2 (Dense)              (None, 256)               65792     
_________________________________________________________________
activation_96 (Activation)   (None, 256)               0         
_________________________________________________________________
dense_3 (Dense)              (None, 128)               32896     
_________________________________________________________________
activation_97 (Activation)   (None, 128)               0         
_________________________________________________________________
dense_4 (Dense)              (None, 64)                8256      
_________________________________________________________________
activation_98 (Activation)   (None, 64)                0         
_________________________________________________________________
dense_5 (Dense)              (None, 32)                2080      
_________________________________________________________________
activation_99 (Activation)   (None, 32)                0         
_________________________________________________________________
dense_6 (Dense)              (None, 5)                 165       
=================================================================
Total params: 1,158,021
Trainable params: 1,158,021
Non-trainable params: 0
_________________________________________________________________

window_length = 4

model = Sequential()
model.add(Flatten(input_shape=(window_length,) + env.observation_space.shape))
model.add(Dense(256))
model.add(Activation('relu'))
model.add(Dense(256))
…
