_________________________________________________________________
Layer (type)                 Output Shape              Param #   
=================================================================
dense_1 (Dense)              (None, 5, 64)             16512     
_________________________________________________________________
dense_2 (Dense)              (None, 5, 32)             2080      
_________________________________________________________________
flatten_1 (Flatten)          (None, 160)               0         
_________________________________________________________________
dense_3 (Dense)              (None, 32)                5152      
_________________________________________________________________
dense_4 (Dense)              (None, 14)                462       
_________________________________________________________________
dense_5 (Dense)              (None, 14)                210       
_________________________________________________________________
dense_6 (Dense)              (None, 5)                 75        
=================================================================
Total params: 24,491
Trainable params: 7,979
Non-trainable params: 16,512
_________________________________________________________________

for __ in range(1):
    for increase_confidence in range(5):
        window_length = 5
        memory_size = 2048
        batch_size = 256
        env = gym_bizhawk.BizHawk(logging_folder_path=TB_path, replay=REPLAY)
…
