_________________________________________________________________
Layer (type)                 Output Shape              Param #   
=================================================================
dense_31 (Dense)             (None, 13, 32)            8224      
_________________________________________________________________
flatten_7 (Flatten)          (None, 416)               0         
_________________________________________________________________
dense_32 (Dense)             (None, 32)                13344     
_________________________________________________________________
dense_33 (Dense)             (None, 16)                528       
_________________________________________________________________
dense_34 (Dense)             (None, 16)                272       
_________________________________________________________________
dense_35 (Dense)             (None, 4)                 68        
=================================================================
Total params: 22,436
Trainable params: 22,436
Non-trainable params: 0
_________________________________________________________________

memory_size = 2048
batch_size = 256
for window_length in range(1, 54, 2):
    env = gym_bizhawk.BizHawk(logging_folder_path=TB_path, replay=REPLAY)

    model = Sequential()
    model.add(Dense(32, input_shape=((window_length,) + (env.observation_space.shape)), activation="relu"))
…
