_________________________________________________________________
Layer (type)                 Output Shape              Param #   
=================================================================
dense_126 (Dense)            (None, 5, 36)             9252      
_________________________________________________________________
flatten_26 (Flatten)         (None, 180)               0         
_________________________________________________________________
dense_127 (Dense)            (None, 36)                6516      
_________________________________________________________________
dense_128 (Dense)            (None, 18)                666       
_________________________________________________________________
dense_129 (Dense)            (None, 18)                342       
_________________________________________________________________
dense_130 (Dense)            (None, 4)                 76        
=================================================================
Total params: 16,852
Trainable params: 16,852
Non-trainable params: 0
_________________________________________________________________

        window_length = 5
        memory_size = 2048
        batch_size = 256
        env = gym_bizhawk.BizHawk(logging_folder_path=TB_path, replay=REPLAY)

        model = Sequential()
        model.add(Dense(4 * model_size, input_shape=((window_length,) + (env.observation_space.shape)), activation="relu"))
…
