_________________________________________________________________
Layer (type)                 Output Shape              Param #   
=================================================================
dense_25 (Dense)             (None, 5, 32)             8256      
_________________________________________________________________
flatten_5 (Flatten)          (None, 160)               0         
_________________________________________________________________
dense_26 (Dense)             (None, 32)                5152      
_________________________________________________________________
dense_27 (Dense)             (None, 14)                462       
_________________________________________________________________
dense_28 (Dense)             (None, 14)                210       
_________________________________________________________________
dense_29 (Dense)             (None, 4)                 60        
=================================================================
Total params: 14,140
Trainable params: 14,140
Non-trainable params: 0
_________________________________________________________________

for __ in range(8):
    for increase_confidence in range(5):
        window_length = 5
        memory_size = 2048
        batch_size = 256
        env = gym_bizhawk.BizHawk(logging_folder_path=TB_path, replay=REPLAY)
…
