_________________________________________________________________
Layer (type)                 Output Shape              Param #   
=================================================================
dense_41 (Dense)             (None, 4, 32)             8224      
_________________________________________________________________
flatten_9 (Flatten)          (None, 128)               0         
_________________________________________________________________
dense_42 (Dense)             (None, 32)                4128      
_________________________________________________________________
dense_43 (Dense)             (None, 16)                528       
_________________________________________________________________
dense_44 (Dense)             (None, 16)                272       
_________________________________________________________________
dense_45 (Dense)             (None, 4)                 68        
=================================================================
Total params: 13,220
Trainable params: 13,220
Non-trainable params: 0
_________________________________________________________________

for memory_size in [1024, 2048, 1024 * 4, 8192, 1024 * 32]:
    for batch_size in [32, 128, 256, 512, 1024]:
        window_length = 4
        env = gym_bizhawk.BizHawk(logging_folder_path=TB_path, replay=REPLAY)
…
