_________________________________________________________________
Layer (type)                 Output Shape              Param #   
=================================================================
dense_31 (Dense)             (None, 5, 12)             3084      
_________________________________________________________________
flatten_7 (Flatten)          (None, 60)                0         
_________________________________________________________________
dense_32 (Dense)             (None, 12)                732       
_________________________________________________________________
dense_33 (Dense)             (None, 6)                 78        
_________________________________________________________________
dense_34 (Dense)             (None, 6)                 42        
_________________________________________________________________
dense_35 (Dense)             (None, 4)                 28        
=================================================================
Total params: 3,964
Trainable params: 3,964
Non-trainable params: 0
_________________________________________________________________

        window_length = 5
        memory_size = 2048
        batch_size = 256
        env = gym_bizhawk.BizHawk(logging_folder_path=TB_path, replay=REPLAY)

        model = Sequential()
        model.add(Dense(4 * model_size, input_shape=((window_length,) + (env.observation_space.shape)), activation="relu"))
…
