_________________________________________________________________
Layer (type)                 Output Shape              Param #   
=================================================================
flatten_1 (Flatten)          (None, 1024)              0         
_________________________________________________________________
dense_1 (Dense)              (None, 1024)              1049600   
_________________________________________________________________
activation_95 (Activation)   (None, 1024)              0         
_________________________________________________________________
dense_2 (Dense)              (None, 256)               262400    
_________________________________________________________________
activation_96 (Activation)   (None, 256)               0         
_________________________________________________________________
dense_3 (Dense)              (None, 32)                8224      
_________________________________________________________________
activation_97 (Activation)   (None, 32)                0         
_________________________________________________________________
dense_4 (Dense)              (None, 5)                 165       
=================================================================
Total params: 1,320,389
Trainable params: 1,320,389
Non-trainable params: 0
_________________________________________________________________

window_length = 1

model = Sequential()
model.add(Flatten(input_shape=(window_length,) + env.observation_space.shape))
model.add(Dense(1024))
model.add(Activation('relu'))
model.add(Dense(256))
…
